model/model.pth (torch, 16787 bytes, 4 tensors)

linear1.weight f4 [256, 11]
00000000: 366a 333e d7e8 893e 9fab 11be 75d3 74be
00000010: f691 5abc d232 243b 681b 77be 7272 30be
00000020: 7fac e13d f874 f63d 1f48 933e b0c0 8bbe
00000030: 510b 1ebe e7a9 a6bd a2da 7d3e ee74 9ebd
00000040: 1fbe 93be 5d40 88be 1c9c 673e edc6 b03d
00000050: 9238 113e 0cd8 2cbe 16b0 66be e1a5 22be
00000060: 0974 623e 4894 6c3e 10c1 78bd 1fb6 47be
00000070: a5da 38bd 9c92 f53d 67bc 79be dc23 1ebe
00000080: f78a 3e3e 8804 8d3e 04d6 dd3d 605c 8f3d
00000090: af81 98bb b80a 4cbe b2f7 90be a0d9 25bd
000000a0: c849 72bd 4c28 913d 4dc3 99be 7871 c1bd
000000b0: 4961 6abe e856 e63d 66d1 b4bd ce37 403e
000000c0: 889f 673d f985 1cbe 4a8a cbbd 6058 ec3c
000000d0: bc79 43be e6b6 0cbe 8cb7 49be 40ad 4f3e
000000e0: f79e 813e c9f6 923e 6aaf d1bd 04fe 8a3e
000000f0: 95d0 853e 7125 70be c8b0 57be 2d1c 383e
00000100: b55b 62bd 2b22 373e a2ac da3c 7ebb 3e3e
00000110: d8a4 3a3e 7422 463e daf0 43be 9525 88be
00000120: 3ef2 5fbe 6670 893e a94b d13d 70ca 06be
00000130: b9cc 87be f867 37be 7d4f 86be 4227 8c3d
00000140: 5cf4 14be 0333 14be 9e09 a43d ccc8 4bbd
00000150: 8026 dcbd 5085 ed3b dac2 663e 354f 5e3e
00000160: 0198 e03d 3657 9e3e 903c 40be 4390 4e3d
00000170: 5ff3 963e aba6 1a3e 223e 9e3c ba7a 67bd
00000180: e89f 8a3e 911b 67be f568 d8bd bb7c 91be
00000190: 6c1c 70be 925f 973e 8990 8abd a865 48be
000001a0: e2df 2c3e 22b2 f4bd 7ab1 58be ef8a 6abe
000001b0: 7c54 3c3e 7416 213e 765a c4bd b16c 113e
000001c0: 499d 98be 7d9f 393d 4328 83be 56ca 743d
000001d0: 58b0 1fbd 1617 2b3e 00af 5abe a02c d3bd
000001e0: 6d58 cb3d 1547 3d3e 3280 0d3b 1abd 5cbe
000001f0: c8be 633e 73ed f23d 1b66 0d3d 8b0f 053e
00000200: ef8a 5f3e dd5b 5abe 9a41 32bd 2ede 143e
00000210: a27b 40bc 35de fd3d 3aea 97be 2c94 5a3e
00000220: 36bf 9b3d 6937 53be fb8c 2c3e 68f6 fabd
00000230: e0ef 40bd 658a f23d 3696 843e 45ec bf3c
00000240: a496 513e d0ed 3b3e 0487 923e b647 99be
00000250: 517c 2bbe ac1d 153e fc1c 99bd 8bad af3d
00000260: ec34 5ebe 7c80 c83c d4fc 2abc e4e5 9d3e
00000270: f64e 94be 15da 043e a14a 4abe 0f91 8e3d
00000280: a1cb b7bb 0cbd 823e e0d7 a53e b676 813e
00000290: ae8f 6dbe 3d92 a43e c035 423d a48b 033e
000002a0: 2453 913e 080d 7e3e d854 e0bd ba52 92be
000002b0: 2ef7 72be 83b1 70be 6dea 1dbe 167c 96be
000002c0: 421f 7abe fb5a 85be 799e 863e 9797 353e
000002d0: d47f 70bd e1a1 823e 09cc 18be 1984 683e
000002e0: 85aa 353e 860d c1bb 31de a6be b383 2d3d
000002f0: 3016 2fbe 2e68 6cbe e26c 80be e970 1f3e
00000300: 11a2 103e 8522 46be c49b 873e 8bee 5c3e
00000310: 5097 1a3e 8049 843e ffca 353e f622 32bc
00000320: 9ce7 dc3d f4d7 293e cf63 2a3e 721c 273e
00000330: 4f61 283e d824 7dbe 0d96 873d e9f2 2ebe
00000340: dcb9 8cbe 6146 9e3d fd33 223e f4a8 b9bd
00000350: 2c14 403c b1be e2bd 9487 24be de0f 8d3d
00000360: 672c 0fbe f72b 9fbe 62e2 70be 87e4 563e
00000370: 4edd 493e 4234 debd ee55 41be bdd6 b13d
00000380: a464 b9bd 975b 0a3e d39d 8abe 1499 f63c
00000390: d0be 3e3d 7474 323e 588d 7abe 21a2 0bbe
000003a0: dc62 74bd f9fa c23d fc1e 50bc c67a 813d
000003b0: 6b7e a5bd cbff 0f3e 2dfd 373e 2a16 7f3e
000003c0: 6f96 0d3e 8101 90bd 91cc 833e 5933 933e
000003d0: 9875 39bd 0339 663e 92c7 a03d 63af 153c
000003e0: 2039 45bc 7c10 40be 8b78 363e abde 89be
000003f0: a9dd 65be 97df 373e 84f8 8bbb e5fd 0ebd
0.17520985 0.26935455 -0.14225625 -0.2390879 -0.013340464 0.0025054705 -0.24131548 -0.17231157
0.11019229 0.12034029 0.28765962 -0.27295446 -0.15434004 -0.08137875 0.24790433 -0.07737146
-0.28855988 -0.26611605 0.22618145 0.08631692 0.14181736 -0.1687929 -0.22528109 -0.1588359
0.22114576 0.2310344 -0.060730994 -0.19503067 -0.04513039 0.11990854 -0.24388276 -0.15443367
0.18607698 0.2754252 0.10831836 0.07000041 -0.0046541314 -0.19925964 -0.28313977 -0.040490746
-0.059152395 0.07087764 -0.30031815 -0.094454706 -0.22888674 0.11247045 -0.08829002 0.18771288
0.056548625 -0.15285482 -0.09938486 0.028850734 -0.19089407 -0.13741645 -0.19698924 0.20280933
0.25316593 0.28703907 -0.10238536 0.27146924 0.26135698 -0.23451783 -0.2106353 0.17979498
-0.05526324 0.17884128 0.026693646 0.1862621 0.18226945 0.1934908 -0.19134846 -0.26591173
-0.21869752 0.26843566 0.10219509 -0.13163161 -0.26523378 -0.17910755 -0.2623252 0.06843425
-0.1454634 -0.14472584 0.08009647 -0.04975204 -0.10749531 0.007248558 0.22535267 0.21709903
0.109664924 0.30925912 -0.18773103 0.050430547 0.29482552 0.15102641 0.019316737 -0.056513526
0.27075124 -0.2256911 -0.10566894 -0.28415474 -0.23448342 0.29565102 -0.06765849 -0.19570029
0.1688228 -0.11948039 -0.21161452 -0.22904561 0.18391603 0.15731221 -0.095875666 0.14201619
-0.298075 0.045318116 -0.25616655 0.059763275 -0.038986534 0.16708025 -0.2135582 -0.10311246
0.09928975 0.18484147 0.0021591303 -0.21556512 0.22240746 0.11861696 0.034521203 0.1299421
0.21830343 -0.21324106 -0.043519594 0.1453788 -0.011748226 0.12395898 -0.29670888 0.21345586
0.0760483 -0.20626606 0.16850655 -0.122540295 -0.047103763 0.11842803 0.25895852 0.023428092
0.20467621 0.18352437 0.28618634 -0.29937524 -0.16746642 0.145621 -0.074762315 0.085780226
-0.21699876 0.024475329 -0.0104362555 0.30839455 -0.28966492 0.12973817 -0.19755031 0.069612615
-0.0056089913 0.25534856 0.32391262 0.25285882 -0.2319934 0.3214282 0.04741454 0.12846237
0.28383744 0.24809659 -0.10953683 -0.2857874 -0.23727104 -0.23505215 -0.15421458 -0.29391545
-0.24425986 -0.26045975 0.2629278 0.17733608 -0.058715656 0.2551413 -0.14921583 0.22706641
0.1774083 -0.0058915047 -0.32591394 0.042361926 -0.17098308 -0.23086616 -0.2508307 0.15570416
0.14124323 -0.19349106 0.26486027 0.21575372 0.15096784 0.25837326 0.17753218 -0.010872593
0.107863635 0.16586286 0.16639636 0.16319445 0.1644337 -0.24721086 0.06620417 -0.1708485
-0.2748555 0.077282675 0.15840144 -0.090654284 0.011723559 -0.11071528 -0.16067344 0.06887792
-0.13981782 -0.3108823 -0.23523858 0.20985614 0.19713327 -0.10849811 -0.18880436 0.08683536
-0.09052399 0.13511501 -0.27073535 0.03010229 0.04656869 0.17427236 -0.24467981 -0.13636066
-0.059664592 0.095205255 -0.0127027 0.06322245 -0.08080753 0.14062421 0.17967673 0.24910799
0.13826917 -0.07031537 0.2574201 0.28750113 -0.04527816 0.22482686 0.07850565 0.009136054
-0.012037545 -0.18756288 0.17819421 -0.26927695 -0.22447838 0.17956387 -0.0042715687 -0.0349101

linear1.bias f4 [256]
00000000: 54be 8fbe f2c5 30be e2b4 fabd dc07 94be
00000010: 35f6 81be 47fe 883e 8822 37be fc9f 033d
00000020: ad11 4c3e 5357 47be e689 d93c 2d69 643e
00000030: 5b3a 9c3d fba0 93be 41fb 0a3e f5b2 aebd
00000040: 970f 4b3d 183c 1dbe 6bef 273e 513c 783d
00000050: 0ccd 153e c859 fdbd f764 4cbe a5b4 da3d
00000060: 48c6 27be d9b0 a23d ce51 193e badb ec3c
00000070: a30b 8d3c b1c4 1e3e 8651 4fbe 18b5 57be
00000080: 51de 50be e783 8c3d 1d12 39be 5979 a0bd
00000090: b3e0 02be 8b56 353c 6566 08be b1c2 40be
000000a0: 7ffd 44be 1d52 853e bace 413c 9f4c dbbd
000000b0: 4dc8 953e 1005 f63d 969e 17be e503 903e
000000c0: 828f 913e cd3f 9cbd 5a80 91bd eddf 9c3c
000000d0: 30e3 c6bd def6 193d 30be 453e ffd0 cdbb
000000e0: d48e 27be 1de0 433e f6e9 84be 3dfc 08be
000000f0: bffb d9bd 495f 0abe 0012 933e 8f2a 8b3e
00000100: 817a ed3c 9e11 6a3e a47e 3bbe 1168 b63d
00000110: a38d efbd 4663 563e 0558 36be 6fb1 c9bd
00000120: 985f bbbc 5e51 a0be 1cf2 7e3e f8c7 8d3e
00000130: f4e1 4bbe 75f7 afbd a9b0 843e ca9d 723e
00000140: 4af7 b7bd 68e1 47bd df52 873e 19af 62bd
00000150: 0ad4 29be e75c 453c 45ae aabd b7c4 f43c
00000160: 34b7 193e 7f04 d73d b4ee 81be ea60 89be
00000170: b3ea 3a3e eb56 843e beb8 4fbd afc3 173e
00000180: 5e90 ea3c b6e7 b4bd 3974 18be 69c2 79be
00000190: 8ff8 913e cad5 b83c 9f4a 7e3e 2753 843e
000001a0: 74dd eabd 118a 783e a516 35be 495b 90be
000001b0: d631 6fbe f2fd b63d b8ae 45be ac60 9a3e
000001c0: d712 0bbd 56cc df3a 3467 d73d 5f0e c3bd
000001d0: 24b4 6a3e e1b8 39be f1db ebbd a198 883e
000001e0: c640 f23c a4bb 153e 77d3 aa3d 3284 01bd
000001f0: 0137 1dbe abe6 1cbd b31a 5abe 3ef6 ecbc
00000200: d896 86be b5ba 74bc 9e32 033e e46d 14be
00000210: c8a9 86be e23f 55be a227 febd d56e d6bd
00000220: 7aab 5a3e c1ef 213e d516 813e bec2 f5bd
00000230: c886 83be 906c 2b3e b14e 24be f3a8 9b3a
00000240: f600 4cbe 77f0 3a3e b2e0 a73c d1e6 08bd
00000250: e269 2bbe d5c8 2abe af43 cfbd 7d9f 253e
00000260: 8ebf 1fbe c309 873e adf6 56be 4959 a5bd
00000270: 87ca 85be 0d57 f23d afe2 30bd 9bff 18bd
00000280: 3d28 43be fa6b ecbd 196a 93bd fbfd 9cbd
00000290: e927 2bbe 7205 d43d 63e6 6c3e 037b e63d
000002a0: 55b4 463e ce4b 93be 4e5a 603c 03b9 953a
000002b0: b67b 1a3e 4711 8dbd 1cd9 403e 3d08 1b3e
000002c0: 7988 debd 6591 5c3e bf9a 85be 10e5 803d
000002d0: 517b 123e b513 183e 2e3c 24be f404 94be
000002e0: 42c2 d23c be4d 0fbe c070 06be 048f 79be
000002f0: 3eac c6b9 d60d be3d c589 66be 8c04 b73c
00000300: 7a33 363e 40b8 2b3c 1550 3c3e 1cc6 5e3c
00000310: 0514 a6be d2e4 92bd 5c7b 12be 8e05 953d
00000320: 102b e73d 3de9 933e 83da f33d 1912 7d3d
00000330: 9e30 45bd 31f2 103e 8d43 e03d 9264 003b
00000340: 3b8d 53be 60ec 8cbd d707 603e 1183 033d
00000350: 0493 5d3e 5ea7 3ebe eb59 953e dc1a bdbd
00000360: a1b3 0dbe b175 603e cf4c 2e3e 8a1f 563d
00000370: c0ac c03d 4b3c d8bc 626e c4bd 517a 983d
00000380: 5691 7c3e 3f2f 1dbe d043 c23d 0e9f d43b
00000390: 4de9 7ebe d688 9fbd e1fa 52be b06f 2a3e
000003a0: a7be 1ebe fedf 973e 26ce e13d 4167 6abd
000003b0: d2c2 033e 18fb abbc 5300 c73d c065 85be
000003c0: 5018 88be 452a 0c3e e29e 283e 1ff1 443e
000003d0: ea5c aabc d4bb 6e3e f307 30bd d918 6d3d
000003e0: 38af 3b3e 8cb2 523c 9df7 43be cc8f 993e
000003f0: d7e4 eb3d 462b 77be 04a8 54be 69e5 2abe
-0.28074896 -0.1726301 -0.12241532 -0.28912246 -0.25383154 0.26756498 -0.17884266 0.032134995
0.19928618 -0.19466905 0.026555013 0.22305746 0.07628318 -0.28833756 0.13572408 -0.08530227
0.049575415 -0.15354955 0.16399924 0.060604397 0.14629 -0.1237064 -0.1996039 0.106789865
-0.16384232 0.07943887 0.14972612 0.028913368 0.017217463 0.1550472 -0.20245942 -0.21065176
-0.20397307 0.06861096 -0.18073316 -0.07835645 -0.12781028 0.011067997 -0.1332031 -0.18824269
-0.19237326 0.2603921 0.011829073 -0.10707974 0.2925438 0.12012684 -0.1480659 0.2812797
0.284298 -0.076293565 -0.07104559 0.019149745 -0.09711301 0.037588947 0.19310832 -0.006281018
-0.16363078 0.19128461 -0.25959748 -0.13377471 -0.1064372 -0.13512911 0.2872467 0.27180907
0.028989078 0.22858283 -0.18310028 0.08906568 -0.11696937 0.20936307 -0.17807014 -0.09848296
-0.022872731 -0.31312078 0.24897045 0.27691627 -0.19910413 -0.085921206 0.2591603 0.23693004
-0.089827135 -0.04879895 0.26430413 -0.055342767 -0.16584793 0.012046075 -0.083340205 0.029878957
0.15011293 0.104989044 -0.2537743 -0.26831752 0.18253593 0.25847563 -0.050713293 0.14820741
0.028633293 -0.08833258 -0.14888085 -0.24390568 0.28509948 0.02256288 0.24833153 0.2584469
-0.1146802 0.24271418 -0.1768442 -0.28194645 -0.23358855 0.08935155 -0.19304931 0.3015188
-0.033953514 0.0017074447 0.10517731 -0.095242254 0.2292028 -0.18136932 -0.1151656 0.26678947
0.029571902 0.1462236 0.08341115 -0.031620212 -0.15353014 -0.03830592 -0.21299247 -0.028926011
-0.2628696 -0.014937093 0.12812278 -0.14495045 -0.26301408 -0.2082515 -0.12409903 -0.10470358
0.21354476 0.15814115 0.25212732 -0.12000035 -0.25688767 0.16740632 -0.16045643 0.0011875912
-0.19922242 0.18255793 0.020492885 -0.03342325 -0.1673961 -0.16678174 -0.101203315 0.16174121
-0.15600416 0.26374635 -0.20992537 -0.080736704 -0.2613108 0.1183301 -0.043184932 -0.03735314
-0.19058318 -0.115440324 -0.07197971 -0.076656304 -0.16714443 0.10352601 0.2313476 0.112539314
0.19404729 -0.28768772 0.013693405 0.0011422936 0.15086254 -0.06888061 0.1883282 0.15139861
-0.10865874 0.21539839 -0.26094624 0.0629369 0.14304854 0.14851268 -0.16038582 -0.2891003
0.025727395 -0.139945 -0.13128948 -0.24370962 -0.00037893833 0.09279983 -0.22513492 0.022341035
0.17793074 0.01048094 0.18389924 0.013597038 -0.3243715 -0.0717255 -0.1430487 0.0727645
0.112875104 0.28888884 0.11906912 0.061784837 -0.048142068 0.14154889 0.10950384 0.0019591195
-0.20659344 -0.068810225 0.2187799 0.032107417 0.21638113 -0.18618533 0.29170164 -0.09233639
-0.13838054 0.21919896 0.17021488 0.05227617 0.094079494 -0.026395937 -0.09591366 0.07445205
0.24664816 -0.15350054 0.094855905 0.0064886874 -0.24893685 -0.07789771 -0.20603515 0.16644168
-0.15502416 0.2966308 0.11025648 -0.057227377 0.12867287 -0.020993754 0.09716859 -0.26054192
-0.2658105 0.13688 0.16466859 0.19232605 -0.020796258 0.23313838 -0.04297633 0.057885025
0.1832856 0.012859952 -0.19137426 0.2999252 0.11518257 -0.24137601 -0.20767218 -0.16689076

linear2.weight f4 [3, 256]
00000000: d741 cb3c 2af9 dd3c 2870 a0bc c0ab 40bc
00000010: e2d0 0e3d f40d 733c 6f11 a53d a633 0b3d
00000020: 16d9 7ebd 777e 74bd 85f4 30bd ae27 e1bc
00000030: 2659 bfbd c5ba 52bd 193b 55bd af0c 65bd
00000040: 62cd 0bbc 7f38 923b c8ff e339 218c abbd
00000050: 4937 dc3c ad60 163d e61f 06bd 70d7 21bd
00000060: 8fe3 563d 8ed6 203d 4d03 98bd c1ff 67bd
00000070: 60b4 32bd d256 c9bc afc9 013d 4f19 1f3d
00000080: cf88 e2bc bd3c fabc 95c1 603d 4f4d 8bbc
00000090: a44c 67bd f8f0 adbc aa22 7cb9 224d 9cbd
000000a0: 2ced 87bc b64c 55bc b077 0a3d 836d 86bd
000000b0: 8706 45bd 0849 5abd d957 623c 3be6 8dbd
000000c0: 5886 99bd 79d1 b4bd 526d c9ba 1111 f03b
000000d0: 0e37 413d d343 183d 6cef 893c 4b06 12bd
000000e0: 45e8 16bc ee01 b7bd 9a22 08bc f443 14bd
000000f0: 7538 b1bb 005a 2bbb 0b66 60bb a7e5 1b3c
00000100: bbf3 84bd b2b9 bb3c 7f09 e13c 303d 143c
00000110: 13bd 9abc 6ffd 24bc 3670 0c3b fb2f c8bc
00000120: 9af6 f13a 712d 3cbc dcdc 15bc f419 18bd
00000130: d556 4ebd a375 143d 4c02 ccbc 28dd 423c
00000140: 7f6b 333d ddb3 9ebc a901 99bd f919 8f3c
00000150: 516e 29bd 8913 19bb b0e7 43bd 234d e93c
00000160: 7ad3 4bbd 1587 773d 3057 25bd 1b5e 8dbc
00000170: b59c 093d 38ef 01bd c630 aabc 8607 a1bc
00000180: c360 513d f994 e63c d0cc acbc e8c5 bd3c
00000190: 6d22 fb3c 558a d33c b1cf f33c 05b9 12bc
000001a0: 82ad 0fbd 9815 47bd 3846 82bd ce25 41bd
000001b0: a025 76bc e870 51bd 80bf c53c 94d9 56bd
000001c0: 3c16 12ba 13fb 1f3c d71d 6f3c 52f7 b1bd
000001d0: 02aa a8bc d085 35b8 b213 3d3d e365 ca3b
000001e0: c6de 223c fdd0 1e3d 7556 8ebc 4b8f 1dbd
000001f0: f8b6 563d 7596 1d3c d9d7 57bd ddf3 2fbd
00000200: 5839 dcba 86ac f53d 82b5 61bc 0ae9 d7bc
00000210: 234c 37bb 94b1 a83c 0b45 af3d e01d 93bd
00000220: a741 453d 5f35 5ebd 3980 8a3c 3908 05ba
00000230: 12f1 543d e1eb d03c 12e5 37bd 865a d0bc
00000240: ba78 5a3d f4e1 50bd 1203 bfbc 46d8 0abd
00000250: d0c8 853b f983 c03c 15f4 37bd 8be5 91bc
00000260: 6fae 083d 0c16 a43b 0ed0 81bd cddf b43c
00000270: a177 04bb 0716 51bd e72a 6bbd c531 703c
00000280: afab 443c 7bb9 bebc bc15 1fbd 58cb 3e3c
00000290: 17aa be3c b34e b2bc 0d00 0cbd caaa 193d
000002a0: 1112 11bd c431 ba3c a2c9 fabd 9a45 d83c
000002b0: 767b 8fbd 69d3 1f3c 8436 61bd 0ad3 19bd
000002c0: b152 76bd 8510 58bd 5a96 c73c 847d d23c
000002d0: 6ef4 f8bc 1162 e43b 8d5c 583d 8959 69bd
000002e0: f94c 81bc ccb7 b33a 37f0 613c 9c6e 373d
000002f0: 054a 46bc 8777 4abc 1102 89bd e021 4cbd
00000300: a55e ae3c 54a8 2abc e785 a039 136b 9e3c
00000310: b675 3c3d a776 b53c 8046 4f39 ebc5 69bd
00000320: 94bc 8b3c a5aa a6bd ab47 3d3d f4d7 cc3c
00000330: fd2c 03bd 604a 0e3d 698b 153c ea14 f5bc
00000340: a15e 99bd 7e4c 6bbd 6bb2 f3bb 5583 5b3c
00000350: 35fa 34bd 552f 00bd 4d2b f13c 0349 cebc
00000360: f0b0 023c ecdb 6e3b cc51 173d 922f 22bd
00000370: 194b a2bd a404 19bc e6ce 08bd f1f1 1f3d
00000380: 1ad5 e53c 6207 c33c 2ede c0bc d962 383d
00000390: 1670 5a3d aee1 32bd 392b d2bc 52a2 18bb
000003a0: e002 07bd 85db 923d c4b1 60bd 7077 3cbd
000003b0: a92b 5bbd cc17 bebc ff06 86bc 5451 073d
000003c0: c8e9 433c da10 febc 56b9 cfbc a393 30bd
000003d0: 555e 18bd 67bc 3dbd 0913 a93c 8533 0ebd
000003e0: 4631 d03c 513b 0bbd 7b86 5cbc e763 3dbd
000003f0: ad64 283c f85c bc3a 3819 99bb 5164 32bd
0.024811668 0.02709635 -0.01958473 -0.011759698 0.034867175 0.01483487 0.08059966 0.033984803
-0.062218748 -0.05969092 -0.043201942 -0.027484741 -0.093431756 -0.05144765 -0.052058313 -0.0559203
-0.008532854 0.0044623013 0.00043487386 -0.08376337 0.02688183 0.03671329 -0.032745264 -0.039512098
0.05246311 0.039267115 -0.074225046 -0.05664039 -0.04362905 -0.024577532 0.03168648 0.038842496
-0.027653126 -0.03054654 0.054872114 -0.017004637 -0.056469575 -0.021233067 -0.00024045506 -0.076318994
-0.016592585 -0.013018778 0.03380555 -0.065638565 -0.048101928 -0.053292304 0.01381489 -0.069286786
-0.07496327 -0.08829016 -0.0015367663 0.007326253 0.047171645 0.037174057 0.016837798 -0.035650533
-0.009210651 -0.08935915 -0.008309031 -0.036197618 -0.0054083415 -0.0026146173 -0.003424051 0.009515203
-0.064918004 0.022915695 0.027470348 0.009047791 -0.018888986 -0.010070189 0.0021429188 -0.024436941
0.0018460334 -0.011485443 -0.009146895 -0.037134126 -0.05037578 0.036245 -0.024903439 0.011893548
0.04380369 -0.019372875 -0.0747102 0.01746844 -0.04136497 -0.002335759 -0.047828376 0.028479164
-0.049762227 0.06043156 -0.04036635 -0.017256787 0.033596713 -0.031722277 -0.02077521 -0.019656908
0.05111767 0.028147208 -0.021093756 0.023165658 0.030656064 0.025822798 0.02976212 -0.008955245
-0.03507758 -0.048604578 -0.063610494 -0.047155194 -0.015023619 -0.051133066 0.024139166 -0.052453592
-0.0005572771 0.009764451 0.014594517 -0.08689751 -0.020588879 -4.3278385e-05 0.04616136 0.0061766966
0.009940809 0.038773526 -0.01737521 -0.038466733 0.052420586 0.009618391 -0.052696083 -0.042957176
-0.0016801758 0.11995797 -0.013776185 -0.026356239 -0.0027968965 0.020592488 0.08558091 -0.071834326
0.048158314 -0.054250117 0.016906844 -0.00050747726 0.051987715 0.0255031 -0.044896193 -0.02543379
0.05333779 -0.050996736 -0.023316894 -0.03389766 0.0040827766 0.02350043 -0.04491051 -0.01780965
0.033369478 0.005007511 -0.063385114 0.022079373 -0.0020212906 -0.051046398 -0.05741396 0.0146603035
0.012003823 -0.023281803 -0.038839087 0.011645161 0.023274465 -0.021766042 -0.034179736 0.037516393
-0.03541762 0.022728808 -0.1224549 0.026400376 -0.0700597 0.009754994 -0.05498363 -0.03755478
-0.060137454 -0.05275013 0.024363685 0.025694616 -0.03038999 0.0069696982 0.05282264 -0.056970153
-0.015783774 0.0013711392 0.013790182 0.04478322 -0.012102609 -0.012357599 -0.06689847 -0.049836993
0.021285364 -0.010416109 0.00030617343 0.019338166 0.046010695 0.022151304 0.00019767322 -0.057073515
0.017057694 -0.081380166 0.046210926 0.025005318 -0.032025326 0.0347389 0.009127476 -0.0299172
-0.07488752 -0.057445996 -0.0074370406 0.013398011 -0.04418393 -0.03129514 0.029439593 -0.0251813
0.0079767555 0.0036447002 0.036943242 -0.039596148 -0.0792448 -0.009339485 -0.03340044 0.039049093
0.028055716 0.023807231 -0.023543444 0.045016143 0.05332955 -0.043672256 -0.025655376 -0.002329011
-0.032961726 0.07170776 -0.05485703 -0.046012342 -0.053508434 -0.023204707 -0.016360758 0.033036545
0.011957593 -0.031013895 -0.02535693 -0.043109547 -0.037199337 -0.046322253 0.02063896 -0.0347171
0.02541412 -0.033992115 -0.013459797 -0.046237852 0.010277909 0.0014370969 -0.0046721958 -0.0435527

linear2.bias f4 [3]
00000000: c2cd 73bd 9144 2abd 63bf f7bc
-0.059522398 -0.041569296 -0.030242627
